nc: 80 # number of classes
scales: # model compound scaling constants, i.e. 'model=yolov13n.yaml' will call yolov13.yaml with scale 'n'
  # [depth, width, max_channels]
  n: [0.50, 0.25, 1024]   # Nano
  s: [0.50, 0.50, 1024]   # Small
  l: [1.00, 1.00, 512]    # Large
  x: [1.00, 1.50, 512]    # Extra Large

ch: 4
backbone:
  # [from, repeats, module, args]
  - [ -1, 1, Silence, [ ] ]  # 0-P1/2
  # infrared
  - [0, 1, SilenceChannel, [0,3]]  # 1-P1/2
  - [-1, 1, Conv,  [64, 3, 2]] # 2-P1/2
  - [-1, 1, Conv,  [128, 3, 2, 1, 2]] # 3-P2/4
  - [-1, 2, DSC3k2,  [256, False, 0.25]]
  - [-1, 1, Conv,  [256, 3, 2, 1, 4]] # 5-P3/8
  - [-1, 2, DSC3k2,  [512, False, 0.25]]

  # visible
  - [ 0, 1, SilenceChannel, [ 0,3 ] ]  # 7-P1/2  visible

  - [ -1, 1, ZeroConv2d, [ 3,3, 1, 1 ] ] # 8 (P5/32-large)
  - [ [ 1, -1 ], 1, ADD, [ ] ]  # ADD backbone P3   9

  - [ -1, 1, Conv, [ 64, 3, 2 ] ] # 10-P1/2
  - [ -1, 1, Conv, [ 128, 3, 2 ] ] # 11-P2/4
  - [ -1, 2, DSC3k2, [ 256, False, 0.25 ] ]
  - [ -1, 1, Conv, [ 256, 3, 2 ] ] # 13-P3/8
  - [ -1, 2, DSC3k2, [ 512, False, 0.25 ] ] # 14

  - [ -1, 1, ZeroConv2d, [ 512,3, 1, 1 ] ] # 15 (P3/32-)
  - [ [ 6, -1 ], 1, ADD, [ ] ]  # ADD backbone P3   16


  - [ 16, 1, DSConv, [ 512, 3, 2 ] ] # 17-P4/16  infrared
  - [ -1, 4, A2C2f, [ 512, True, 4 ] ]

  - [ 14, 1, DSConv, [ 512, 3, 2 ] ] # 19-P4/16   visible
  - [ -1, 4, A2C2f, [ 512, True, 4 ] ]  #20

  - [ -1, 1, ZeroConv2d, [ 512, 3, 1, 1 ] ] # 21 (P4/16-)
  - [ [ 18, -1 ], 1, ADD, [ ] ]  # ADD backbone P3   22


  - [ 22, 1, DSConv, [ 1024, 3, 2 ] ] # 23-P5/32  infrared
  - [ -1,  4, A2C2f, [ 1024, True, 1 ] ]

  - [ 20, 1, DSConv, [ 1024, 3, 2 ] ] # 25-P5/32  visible
  - [ -1, 4, A2C2f, [ 1024, True, 1 ] ]  #26


  - [ -1, 1, ZeroConv2d, [ 1024,3, 1,1 ] ] # 27 (P5/32-large)
  - [ [ 24, -1 ], 1, ADD, [ ] ]  # ADD backbone P3   28


head:
#  - [[6, 8, 10,16,18, 20], 2, HyperACE, [1024, 8, True, True, 0.5, 1, "both"]] # P4/16   24
  - [[16,22,28], 2, HyperACE, [1024, 8, True, True, 0.5, 1, "both"]] # P4/16   29
  - [-1, 1, nn.Upsample, [None, 2, "nearest"]] # P5/32 30
  - [ 29, 1, DownsampleConv, []] # P3/8 31
  - [[22, 29], 1, FullPAD_Tunnel, []]  #   32
  - [[16, 30], 1, FullPAD_Tunnel, []]  #   33
  - [[28, 31], 1, FullPAD_Tunnel, []] #    34

  - [-1, 1, nn.Upsample, [None, 2, "nearest"]]
  - [[-1, 32], 1, Concat, [1]] # cat backbone P4
  - [-1, 2, DSC3k2, [1024, True]] #    37
  - [[-1, 29], 1, FullPAD_Tunnel, []]  #  38

  - [37, 1, nn.Upsample, [None, 2, "nearest"]]
  - [[-1, 33], 1, Concat, [1]] # cat backbone P3
  - [-1, 2, DSC3k2, [256, True]] #   41
  - [30, 1, Conv, [256, 1, 1]]
  - [[41, 42], 1, FullPAD_Tunnel, []]  #  43

  - [-1, 1, Conv, [256, 3, 2]]  #
  - [[-1, 38], 1, Concat, [1]] # cat head P4  45
  - [-1, 2, DSC3k2, [1024, True]] #
  - [[-1, 29], 1, FullPAD_Tunnel, []]  # 47
#
  - [46, 1, Conv, [512, 3, 2]]
  - [[-1, 34], 1, Concat, [1]] # cat head P5  49
  - [-1, 2, DSC3k2, [1024,True]] # 50 (P5/32-large)
  - [31, 1, Conv, [1024, 3]]
  - [[-1, -2], 1, FullPAD_Tunnel, []]  # 52

  - [[43, 47, 52], 1, Detect, [nc]] # Detect(P3, P4, P5)

